_netD (
  (main): Sequential (
    (0): Conv2d(3, 64, kernel_size=(4, 4), stride=(2, 2), padding=(1, 1), bias=False)
    (1): LeakyReLU (0.2, inplace)
    (2): BATCHResBlock (
      (model): Sequential (
        (0): Conv2d(64, 64, kernel_size=(3, 3), stride=(1, 1), padding=(1, 1))
        (1): BatchNorm2d(64, eps=1e-05, momentum=0.1, affine=True)
        (2): ReLU (inplace)
        (3): Conv2d(64, 64, kernel_size=(3, 3), stride=(1, 1), padding=(1, 1))
        (4): BatchNorm2d(64, eps=1e-05, momentum=0.1, affine=True)
      )
    )
    (3): Conv2d(64, 128, kernel_size=(4, 4), stride=(2, 2), padding=(1, 1), bias=False)
    (4): BatchNorm2d(128, eps=1e-05, momentum=0.1, affine=True)
    (5): LeakyReLU (0.2, inplace)
    (6): BATCHResBlock (
      (model): Sequential (
        (0): Conv2d(128, 128, kernel_size=(3, 3), stride=(1, 1), padding=(1, 1))
        (1): BatchNorm2d(128, eps=1e-05, momentum=0.1, affine=True)
        (2): ReLU (inplace)
        (3): Conv2d(128, 128, kernel_size=(3, 3), stride=(1, 1), padding=(1, 1))
        (4): BatchNorm2d(128, eps=1e-05, momentum=0.1, affine=True)
      )
    )
    (7): Conv2d(128, 256, kernel_size=(4, 4), stride=(2, 2), padding=(1, 1), bias=False)
    (8): BatchNorm2d(256, eps=1e-05, momentum=0.1, affine=True)
    (9): LeakyReLU (0.2, inplace)
    (10): BATCHResBlock (
      (model): Sequential (
        (0): Conv2d(256, 256, kernel_size=(3, 3), stride=(1, 1), padding=(1, 1))
        (1): BatchNorm2d(256, eps=1e-05, momentum=0.1, affine=True)
        (2): ReLU (inplace)
        (3): Conv2d(256, 256, kernel_size=(3, 3), stride=(1, 1), padding=(1, 1))
        (4): BatchNorm2d(256, eps=1e-05, momentum=0.1, affine=True)
      )
    )
    (11): Conv2d(256, 512, kernel_size=(4, 4), stride=(2, 2), padding=(1, 1), bias=False)
    (12): BatchNorm2d(512, eps=1e-05, momentum=0.1, affine=True)
    (13): LeakyReLU (0.2, inplace)
    (14): BATCHResBlock (
      (model): Sequential (
        (0): Conv2d(512, 512, kernel_size=(3, 3), stride=(1, 1), padding=(1, 1))
        (1): BatchNorm2d(512, eps=1e-05, momentum=0.1, affine=True)
        (2): ReLU (inplace)
        (3): Conv2d(512, 512, kernel_size=(3, 3), stride=(1, 1), padding=(1, 1))
        (4): BatchNorm2d(512, eps=1e-05, momentum=0.1, affine=True)
      )
    )
    (15): BATCHResBlock (
      (model): Sequential (
        (0): Conv2d(512, 512, kernel_size=(3, 3), stride=(1, 1), padding=(1, 1))
        (1): BatchNorm2d(512, eps=1e-05, momentum=0.1, affine=True)
        (2): ReLU (inplace)
        (3): Conv2d(512, 512, kernel_size=(3, 3), stride=(1, 1), padding=(1, 1))
        (4): BatchNorm2d(512, eps=1e-05, momentum=0.1, affine=True)
      )
    )
    (16): BATCHResBlock (
      (model): Sequential (
        (0): Conv2d(512, 512, kernel_size=(3, 3), stride=(1, 1), padding=(1, 1))
        (1): BatchNorm2d(512, eps=1e-05, momentum=0.1, affine=True)
        (2): ReLU (inplace)
        (3): Conv2d(512, 512, kernel_size=(3, 3), stride=(1, 1), padding=(1, 1))
        (4): BatchNorm2d(512, eps=1e-05, momentum=0.1, affine=True)
      )
    )
    (17): BATCHResBlock (
      (model): Sequential (
        (0): Conv2d(512, 512, kernel_size=(3, 3), stride=(1, 1), padding=(1, 1))
        (1): BatchNorm2d(512, eps=1e-05, momentum=0.1, affine=True)
        (2): ReLU (inplace)
        (3): Conv2d(512, 512, kernel_size=(3, 3), stride=(1, 1), padding=(1, 1))
        (4): BatchNorm2d(512, eps=1e-05, momentum=0.1, affine=True)
      )
    )
    (18): BATCHResBlock (
      (model): Sequential (
        (0): Conv2d(512, 512, kernel_size=(3, 3), stride=(1, 1), padding=(1, 1))
        (1): BatchNorm2d(512, eps=1e-05, momentum=0.1, affine=True)
        (2): ReLU (inplace)
        (3): Conv2d(512, 512, kernel_size=(3, 3), stride=(1, 1), padding=(1, 1))
        (4): BatchNorm2d(512, eps=1e-05, momentum=0.1, affine=True)
      )
    )
    (19): BATCHResBlock (
      (model): Sequential (
        (0): Conv2d(512, 512, kernel_size=(3, 3), stride=(1, 1), padding=(1, 1))
        (1): BatchNorm2d(512, eps=1e-05, momentum=0.1, affine=True)
        (2): ReLU (inplace)
        (3): Conv2d(512, 512, kernel_size=(3, 3), stride=(1, 1), padding=(1, 1))
        (4): BatchNorm2d(512, eps=1e-05, momentum=0.1, affine=True)
      )
    )
    (20): BATCHResBlock (
      (model): Sequential (
        (0): Conv2d(512, 512, kernel_size=(3, 3), stride=(1, 1), padding=(1, 1))
        (1): BatchNorm2d(512, eps=1e-05, momentum=0.1, affine=True)
        (2): ReLU (inplace)
        (3): Conv2d(512, 512, kernel_size=(3, 3), stride=(1, 1), padding=(1, 1))
        (4): BatchNorm2d(512, eps=1e-05, momentum=0.1, affine=True)
      )
    )
    (21): BATCHResBlock (
      (model): Sequential (
        (0): Conv2d(512, 512, kernel_size=(3, 3), stride=(1, 1), padding=(1, 1))
        (1): BatchNorm2d(512, eps=1e-05, momentum=0.1, affine=True)
        (2): ReLU (inplace)
        (3): Conv2d(512, 512, kernel_size=(3, 3), stride=(1, 1), padding=(1, 1))
        (4): BatchNorm2d(512, eps=1e-05, momentum=0.1, affine=True)
      )
    )
    (22): BATCHResBlock (
      (model): Sequential (
        (0): Conv2d(512, 512, kernel_size=(3, 3), stride=(1, 1), padding=(1, 1))
        (1): BatchNorm2d(512, eps=1e-05, momentum=0.1, affine=True)
        (2): ReLU (inplace)
        (3): Conv2d(512, 512, kernel_size=(3, 3), stride=(1, 1), padding=(1, 1))
        (4): BatchNorm2d(512, eps=1e-05, momentum=0.1, affine=True)
      )
    )
    (23): Conv2d(512, 1, kernel_size=(4, 4), stride=(1, 1), bias=False)
    (24): Sigmoid ()
  )
)
_netG (
  (main): Sequential (
    (0): ConvTranspose2d(100, 512, kernel_size=(4, 4), stride=(1, 1), bias=False)
    (1): BatchNorm2d(512, eps=1e-05, momentum=0.1, affine=True)
    (2): ReLU (inplace)
    (3): BATCHResBlock (
      (model): Sequential (
        (0): Conv2d(512, 512, kernel_size=(3, 3), stride=(1, 1), padding=(1, 1))
        (1): BatchNorm2d(512, eps=1e-05, momentum=0.1, affine=True)
        (2): ReLU (inplace)
        (3): Conv2d(512, 512, kernel_size=(3, 3), stride=(1, 1), padding=(1, 1))
        (4): BatchNorm2d(512, eps=1e-05, momentum=0.1, affine=True)
      )
    )
    (4): BATCHResBlock (
      (model): Sequential (
        (0): Conv2d(512, 512, kernel_size=(3, 3), stride=(1, 1), padding=(1, 1))
        (1): BatchNorm2d(512, eps=1e-05, momentum=0.1, affine=True)
        (2): ReLU (inplace)
        (3): Conv2d(512, 512, kernel_size=(3, 3), stride=(1, 1), padding=(1, 1))
        (4): BatchNorm2d(512, eps=1e-05, momentum=0.1, affine=True)
      )
    )
    (5): BATCHResBlock (
      (model): Sequential (
        (0): Conv2d(512, 512, kernel_size=(3, 3), stride=(1, 1), padding=(1, 1))
        (1): BatchNorm2d(512, eps=1e-05, momentum=0.1, affine=True)
        (2): ReLU (inplace)
        (3): Conv2d(512, 512, kernel_size=(3, 3), stride=(1, 1), padding=(1, 1))
        (4): BatchNorm2d(512, eps=1e-05, momentum=0.1, affine=True)
      )
    )
    (6): BATCHResBlock (
      (model): Sequential (
        (0): Conv2d(512, 512, kernel_size=(3, 3), stride=(1, 1), padding=(1, 1))
        (1): BatchNorm2d(512, eps=1e-05, momentum=0.1, affine=True)
        (2): ReLU (inplace)
        (3): Conv2d(512, 512, kernel_size=(3, 3), stride=(1, 1), padding=(1, 1))
        (4): BatchNorm2d(512, eps=1e-05, momentum=0.1, affine=True)
      )
    )
    (7): BATCHResBlock (
      (model): Sequential (
        (0): Conv2d(512, 512, kernel_size=(3, 3), stride=(1, 1), padding=(1, 1))
        (1): BatchNorm2d(512, eps=1e-05, momentum=0.1, affine=True)
        (2): ReLU (inplace)
        (3): Conv2d(512, 512, kernel_size=(3, 3), stride=(1, 1), padding=(1, 1))
        (4): BatchNorm2d(512, eps=1e-05, momentum=0.1, affine=True)
      )
    )
    (8): BATCHResBlock (
      (model): Sequential (
        (0): Conv2d(512, 512, kernel_size=(3, 3), stride=(1, 1), padding=(1, 1))
        (1): BatchNorm2d(512, eps=1e-05, momentum=0.1, affine=True)
        (2): ReLU (inplace)
        (3): Conv2d(512, 512, kernel_size=(3, 3), stride=(1, 1), padding=(1, 1))
        (4): BatchNorm2d(512, eps=1e-05, momentum=0.1, affine=True)
      )
    )
    (9): BATCHResBlock (
      (model): Sequential (
        (0): Conv2d(512, 512, kernel_size=(3, 3), stride=(1, 1), padding=(1, 1))
        (1): BatchNorm2d(512, eps=1e-05, momentum=0.1, affine=True)
        (2): ReLU (inplace)
        (3): Conv2d(512, 512, kernel_size=(3, 3), stride=(1, 1), padding=(1, 1))
        (4): BatchNorm2d(512, eps=1e-05, momentum=0.1, affine=True)
      )
    )
    (10): BATCHResBlock (
      (model): Sequential (
        (0): Conv2d(512, 512, kernel_size=(3, 3), stride=(1, 1), padding=(1, 1))
        (1): BatchNorm2d(512, eps=1e-05, momentum=0.1, affine=True)
        (2): ReLU (inplace)
        (3): Conv2d(512, 512, kernel_size=(3, 3), stride=(1, 1), padding=(1, 1))
        (4): BatchNorm2d(512, eps=1e-05, momentum=0.1, affine=True)
      )
    )
    (11): ConvTranspose2d(512, 256, kernel_size=(4, 4), stride=(2, 2), padding=(1, 1), bias=False)
    (12): BatchNorm2d(256, eps=1e-05, momentum=0.1, affine=True)
    (13): ReLU (inplace)
    (14): ConvTranspose2d(256, 128, kernel_size=(4, 4), stride=(2, 2), padding=(1, 1), bias=False)
    (15): BatchNorm2d(128, eps=1e-05, momentum=0.1, affine=True)
    (16): ReLU (inplace)
    (17): ConvTranspose2d(128, 64, kernel_size=(4, 4), stride=(2, 2), padding=(1, 1), bias=False)
    (18): BatchNorm2d(64, eps=1e-05, momentum=0.1, affine=True)
    (19): ReLU (inplace)
    (20): ConvTranspose2d(64, 3, kernel_size=(4, 4), stride=(2, 2), padding=(1, 1), bias=False)
    (21): Tanh ()
  )
)
